{"format": "torch", "nodes": [{"name": "model", "id": 140328437645760, "class_name": "BartModel(\n  (shared): Embedding(50265, 1024, padding_idx=1)\n  (encoder): BartEncoder(\n    (embed_tokens): Embedding(50265, 1024, padding_idx=1)\n    (embed_positions): LearnedPositionalEmbedding(1026, 1024, padding_idx=1)\n    (layers): ModuleList(\n      (0): EncoderLayer(\n        (self_attn): Attention(\n          (k_proj): Linear(in_features=1024, out_features=1024, bias=True)\n          (v_proj): Linear(in_features=1024, out_features=1024, bias=True)\n          (q_proj): Linear(in_features=1024, out_features=1024, bias=True)\n          (out_proj): Linear(in_features=1024, out_features=1024, bias=True)\n        )\n        (self_attn_layer_norm): LayerNorm((1024,), eps=1e-05, elementwise_affine=True)\n        (fc1): Linear(in_features=1024, out_features=4096, bias=True)\n        (fc2): Linear(in_features=4096, out_features=1024, bias=True)\n        (final_layer_norm): LayerNorm((1024,), eps=1e-05, elementwise_affine=True)\n      )\n      (1): EncoderLayer(\n        (self_attn): Attention(\n          (k_proj): Linear(in_features=1024, out_features=1024, bias=True)\n          (v_proj): Linear(in_features=1024, out_features=1024, bias=True)\n          (q_proj): Linear(in_features=1024, out_features=1024, bias=True)\n          (out_proj): Linear(in_features=1024, out_features=1024, bias=True)\n        )\n        (self_attn_layer_norm): LayerNorm((1024,), eps=1e-05, elementwise_affine=True)\n        (fc1): Linear(in_features=1024, out_features=4096, bias=True)\n        (fc2): Linear(in_features=4096, out_features=1024, bias=True)\n        (final_layer_norm): LayerNorm((1024,), eps=1e-05, elementwise_affine=True)\n      )\n      (2): EncoderLayer(\n        (self_attn): Attention(\n          (k_proj): Linear(in_features=1024, out_features=1024, bias=True)\n          (v_proj): Linear(in_features=1024, out_features=1024, bias=True)\n          (q_proj): Linear(in_features=1024, out_features=1024, bias=True)\n          (out_proj): Linear(in_features=1024, out_features=1024, bias=True)\n        )\n        (self_attn_layer_norm): LayerNorm((1024,), eps=1e-05, elementwise_affine=True)\n        (fc1): Linear(in_features=1024, out_features=4096, bias=True)\n        (fc2): Linear(in_features=4096, out_features=1024, bias=True)\n        (final_layer_norm): LayerNorm((1024,), eps=1e-05, elementwise_affine=True)\n      )\n      (3): EncoderLayer(\n        (self_attn): Attention(\n          (k_proj): Linear(in_features=1024, out_features=1024, bias=True)\n          (v_proj): Linear(in_features=1024, out_features=1024, bias=True)\n          (q_proj): Linear(in_features=1024, out_features=1024, bias=True)\n          (out_proj): Linear(in_features=1024, out_features=1024, bias=True)\n        )\n        (self_attn_layer_norm): LayerNorm((1024,), eps=1e-05, elementwise_affine=True)\n        (fc1): Linear(in_features=1024, out_features=4096, bias=True)\n        (fc2): Linear(in_features=4096, out_features=1024, bias=True)\n        (final_layer_norm): LayerNorm((1024,), eps=1e-05, elementwise_affine=True)\n      )\n      (4): EncoderLayer(\n        (self_attn): Attention(\n          (k_proj): Linear(in_features=1024, out_features=1024, bias=True)\n          (v_proj): Linear(in_features=1024, out_features=1024, bias=True)\n          (q_proj): Linear(in_features=1024, out_features=1024, bias=True)\n          (out_proj): Linear(in_features=1024, out_features=1024, bias=True)\n        )\n        (self_attn_layer_norm): LayerNorm((1024,), eps=1e-05, elementwise_affine=True)\n        (fc1): Linear(in_features=1024, out_features=4096, bias=True)\n        (fc2): Linear(in_features=4096, out_features=1024, bias=True)\n        (final_layer_norm): LayerNorm((1024,), eps=1e-05, elementwise_affine=True)\n      )\n      (5): EncoderLayer(\n        (self_attn): Attention(\n          (k_proj): Linear(in_features=1024, out_features=1024, bias=True)\n          (v_proj): Linear(in_features=1024, out_features=1024, bias=True)\n          (q_proj): Linear(in_features=1024, out_features=1024, bias=True)\n          (out_proj): Linear(in_features=1024, out_features=1024, bias=True)\n        )\n        (self_attn_layer_norm): LayerNorm((1024,), eps=1e-05, elementwise_affine=True)\n        (fc1): Linear(in_features=1024, out_features=4096, bias=True)\n        (fc2): Linear(in_features=4096, out_features=1024, bias=True)\n        (final_layer_norm): LayerNorm((1024,), eps=1e-05, elementwise_affine=True)\n      )\n      (6): EncoderLayer(\n        (self_attn): Attention(\n          (k_proj): Linear(in_features=1024, out_features=1024, bias=True)\n          (v_proj): Linear(in_features=1024, out_features=1024, bias=True)\n          (q_proj): Linear(in_features=1024, out_features=1024, bias=True)\n          (out_proj): Linear(in_features=1024, out_features=1024, bias=True)\n        )\n        (self_attn_layer_norm): LayerNorm((1024,), eps=1e-05, elementwise_affine=True)\n        (fc1): Linear(in_features=1024, out_features=4096, bias=True)\n        (fc2): Linear(in_features=4096, out_features=1024, bias=True)\n        (final_layer_norm): LayerNorm((1024,), eps=1e-05, elementwise_affine=True)\n      )\n      (7): EncoderLayer(\n        (self_attn): Attention(\n          (k_proj): Linear(in_features=1024, out_features=1024, bias=True)\n          (v_proj): Linear(in_features=1024, out_features=1024, bias=True)\n          (q_proj): Linear(in_features=1024, out_features=1024, bias=True)\n          (out_proj): Linear(in_features=1024, out_features=1024, bias=True)\n        )\n        (self_attn_layer_norm): LayerNorm((1024,), eps=1e-05, elementwise_affine=True)\n        (fc1): Linear(in_features=1024, out_features=4096, bias=True)\n        (fc2): Linear(in_features=4096, out_features=1024, bias=True)\n        (final_layer_norm): LayerNorm((1024,), eps=1e-05, elementwise_affine=True)\n      )\n      (8): EncoderLayer(\n        (self_attn): Attention(\n          (k_proj): Linear(in_features=1024, out_features=1024, bias=True)\n          (v_proj): Linear(in_features=1024, out_features=1024, bias=True)\n          (q_proj): Linear(in_features=1024, out_features=1024, bias=True)\n          (out_proj): Linear(in_features=1024, out_features=1024, bias=True)\n        )\n        (self_attn_layer_norm): LayerNorm((1024,), eps=1e-05, elementwise_affine=True)\n        (fc1): Linear(in_features=1024, out_features=4096, bias=True)\n        (fc2): Linear(in_features=4096, out_features=1024, bias=True)\n        (final_layer_norm): LayerNorm((1024,), eps=1e-05, elementwise_affine=True)\n      )\n      (9): EncoderLayer(\n        (self_attn): Attention(\n          (k_proj): Linear(in_features=1024, out_features=1024, bias=True)\n          (v_proj): Linear(in_features=1024, out_features=1024, bias=True)\n          (q_proj): Linear(in_features=1024, out_features=1024, bias=True)\n          (out_proj): Linear(in_features=1024, out_features=1024, bias=True)\n        )\n        (self_attn_layer_norm): LayerNorm((1024,), eps=1e-05, elementwise_affine=True)\n        (fc1): Linear(in_features=1024, out_features=4096, bias=True)\n        (fc2): Linear(in_features=4096, out_features=1024, bias=True)\n        (final_layer_norm): LayerNorm((1024,), eps=1e-05, elementwise_affine=True)\n      )\n      (10): EncoderLayer(\n        (self_attn): Attention(\n          (k_proj): Linear(in_features=1024, out_features=1024, bias=True)\n          (v_proj): Linear(in_features=1024, out_features=1024, bias=True)\n          (q_proj): Linear(in_features=1024, out_features=1024, bias=True)\n          (out_proj): Linear(in_features=1024, out_features=1024, bias=True)\n        )\n        (self_attn_layer_norm): LayerNorm((1024,), eps=1e-05, elementwise_affine=True)\n        (fc1): Linear(in_features=1024, out_features=4096, bias=True)\n        (fc2): Linear(in_features=4096, out_features=1024, bias=True)\n        (final_layer_norm): LayerNorm((1024,), eps=1e-05, elementwise_affine=True)\n      )\n      (11): EncoderLayer(\n        (self_attn): Attention(\n          (k_proj): Linear(in_features=1024, out_features=1024, bias=True)\n          (v_proj): Linear(in_features=1024, out_features=1024, bias=True)\n          (q_proj): Linear(in_features=1024, out_features=1024, bias=True)\n          (out_proj): Linear(in_features=1024, out_features=1024, bias=True)\n        )\n        (self_attn_layer_norm): LayerNorm((1024,), eps=1e-05, elementwise_affine=True)\n        (fc1): Linear(in_features=1024, out_features=4096, bias=True)\n        (fc2): Linear(in_features=4096, out_features=1024, bias=True)\n        (final_layer_norm): LayerNorm((1024,), eps=1e-05, elementwise_affine=True)\n      )\n    )\n    (layernorm_embedding): LayerNorm((1024,), eps=1e-05, elementwise_affine=True)\n  )\n  (decoder): BartDecoder(\n    (embed_tokens): Embedding(50265, 1024, padding_idx=1)\n    (embed_positions): LearnedPositionalEmbedding(1026, 1024, padding_idx=1)\n    (layers): ModuleList(\n      (0): DecoderLayer(\n        (self_attn): Attention(\n          (k_proj): Linear(in_features=1024, out_features=1024, bias=True)\n          (v_proj): Linear(in_features=1024, out_features=1024, bias=True)\n          (q_proj): Linear(in_features=1024, out_features=1024, bias=True)\n          (out_proj): Linear(in_features=1024, out_features=1024, bias=True)\n        )\n        (self_attn_layer_norm): LayerNorm((1024,), eps=1e-05, elementwise_affine=True)\n        (encoder_attn): Attention(\n          (k_proj): Linear(in_features=1024, out_features=1024, bias=True)\n          (v_proj): Linear(in_features=1024, out_features=1024, bias=True)\n          (q_proj): Linear(in_features=1024, out_features=1024, bias=True)\n          (out_proj): Linear(in_features=1024, out_features=1024, bias=True)\n        )\n        (encoder_attn_layer_norm): LayerNorm((1024,), eps=1e-05, elementwise_affine=True)\n        (fc1): Linear(in_features=1024, out_features=4096, bias=True)\n        (fc2): Linear(in_features=4096, out_features=1024, bias=True)\n        (final_layer_norm): LayerNorm((1024,), eps=1e-05, elementwise_affine=True)\n      )\n      (1): DecoderLayer(\n        (self_attn): Attention(\n          (k_proj): Linear(in_features=1024, out_features=1024, bias=True)\n          (v_proj): Linear(in_features=1024, out_features=1024, bias=True)\n          (q_proj): Linear(in_features=1024, out_features=1024, bias=True)\n          (out_proj): Linear(in_features=1024, out_features=1024, bias=True)\n        )\n        (self_attn_layer_norm): LayerNorm((1024,), eps=1e-05, elementwise_affine=True)\n        (encoder_attn): Attention(\n          (k_proj): Linear(in_features=1024, out_features=1024, bias=True)\n          (v_proj): Linear(in_features=1024, out_features=1024, bias=True)\n          (q_proj): Linear(in_features=1024, out_features=1024, bias=True)\n          (out_proj): Linear(in_features=1024, out_features=1024, bias=True)\n        )\n        (encoder_attn_layer_norm): LayerNorm((1024,), eps=1e-05, elementwise_affine=True)\n        (fc1): Linear(in_features=1024, out_features=4096, bias=True)\n        (fc2): Linear(in_features=4096, out_features=1024, bias=True)\n        (final_layer_norm): LayerNorm((1024,), eps=1e-05, elementwise_affine=True)\n      )\n      (2): DecoderLayer(\n        (self_attn): Attention(\n          (k_proj): Linear(in_features=1024, out_features=1024, bias=True)\n          (v_proj): Linear(in_features=1024, out_features=1024, bias=True)\n          (q_proj): Linear(in_features=1024, out_features=1024, bias=True)\n          (out_proj): Linear(in_features=1024, out_features=1024, bias=True)\n        )\n        (self_attn_layer_norm): LayerNorm((1024,), eps=1e-05, elementwise_affine=True)\n        (encoder_attn): Attention(\n          (k_proj): Linear(in_features=1024, out_features=1024, bias=True)\n          (v_proj): Linear(in_features=1024, out_features=1024, bias=True)\n          (q_proj): Linear(in_features=1024, out_features=1024, bias=True)\n          (out_proj): Linear(in_features=1024, out_features=1024, bias=True)\n        )\n        (encoder_attn_layer_norm): LayerNorm((1024,), eps=1e-05, elementwise_affine=True)\n        (fc1): Linear(in_features=1024, out_features=4096, bias=True)\n        (fc2): Linear(in_features=4096, out_features=1024, bias=True)\n        (final_layer_norm): LayerNorm((1024,), eps=1e-05, elementwise_affine=True)\n      )\n      (3): DecoderLayer(\n        (self_attn): Attention(\n          (k_proj): Linear(in_features=1024, out_features=1024, bias=True)\n          (v_proj): Linear(in_features=1024, out_features=1024, bias=True)\n          (q_proj): Linear(in_features=1024, out_features=1024, bias=True)\n          (out_proj): Linear(in_features=1024, out_features=1024, bias=True)\n        )\n        (self_attn_layer_norm): LayerNorm((1024,), eps=1e-05, elementwise_affine=True)\n        (encoder_attn): Attention(\n          (k_proj): Linear(in_features=1024, out_features=1024, bias=True)\n          (v_proj): Linear(in_features=1024, out_features=1024, bias=True)\n          (q_proj): Linear(in_features=1024, out_features=1024, bias=True)\n          (out_proj): Linear(in_features=1024, out_features=1024, bias=True)\n        )\n        (encoder_attn_layer_norm): LayerNorm((1024,), eps=1e-05, elementwise_affine=True)\n        (fc1): Linear(in_features=1024, out_features=4096, bias=True)\n        (fc2): Linear(in_features=4096, out_features=1024, bias=True)\n        (final_layer_norm): LayerNorm((1024,), eps=1e-05, elementwise_affine=True)\n      )\n      (4): DecoderLayer(\n        (self_attn): Attention(\n          (k_proj): Linear(in_features=1024, out_features=1024, bias=True)\n          (v_proj): Linear(in_features=1024, out_features=1024, bias=True)\n          (q_proj): Linear(in_features=1024, out_features=1024, bias=True)\n          (out_proj): Linear(in_features=1024, out_features=1024, bias=True)\n        )\n        (self_attn_layer_norm): LayerNorm((1024,), eps=1e-05, elementwise_affine=True)\n        (encoder_attn): Attention(\n          (k_proj): Linear(in_features=1024, out_features=1024, bias=True)\n          (v_proj): Linear(in_features=1024, out_features=1024, bias=True)\n          (q_proj): Linear(in_features=1024, out_features=1024, bias=True)\n          (out_proj): Linear(in_features=1024, out_features=1024, bias=True)\n        )\n        (encoder_attn_layer_norm): LayerNorm((1024,), eps=1e-05, elementwise_affine=True)\n        (fc1): Linear(in_features=1024, out_features=4096, bias=True)\n        (fc2): Linear(in_features=4096, out_features=1024, bias=True)\n        (final_layer_norm): LayerNorm((1024,), eps=1e-05, elementwise_affine=True)\n      )\n      (5): DecoderLayer(\n        (self_attn): Attention(\n          (k_proj): Linear(in_features=1024, out_features=1024, bias=True)\n          (v_proj): Linear(in_features=1024, out_features=1024, bias=True)\n          (q_proj): Linear(in_features=1024, out_features=1024, bias=True)\n          (out_proj): Linear(in_features=1024, out_features=1024, bias=True)\n        )\n        (self_attn_layer_norm): LayerNorm((1024,), eps=1e-05, elementwise_affine=True)\n        (encoder_attn): Attention(\n          (k_proj): Linear(in_features=1024, out_features=1024, bias=True)\n          (v_proj): Linear(in_features=1024, out_features=1024, bias=True)\n          (q_proj): Linear(in_features=1024, out_features=1024, bias=True)\n          (out_proj): Linear(in_features=1024, out_features=1024, bias=True)\n        )\n        (encoder_attn_layer_norm): LayerNorm((1024,), eps=1e-05, elementwise_affine=True)\n        (fc1): Linear(in_features=1024, out_features=4096, bias=True)\n        (fc2): Linear(in_features=4096, out_features=1024, bias=True)\n        (final_layer_norm): LayerNorm((1024,), eps=1e-05, elementwise_affine=True)\n      )\n      (6): DecoderLayer(\n        (self_attn): Attention(\n          (k_proj): Linear(in_features=1024, out_features=1024, bias=True)\n          (v_proj): Linear(in_features=1024, out_features=1024, bias=True)\n          (q_proj): Linear(in_features=1024, out_features=1024, bias=True)\n          (out_proj): Linear(in_features=1024, out_features=1024, bias=True)\n        )\n        (self_attn_layer_norm): LayerNorm((1024,), eps=1e-05, elementwise_affine=True)\n        (encoder_attn): Attention(\n          (k_proj): Linear(in_features=1024, out_features=1024, bias=True)\n          (v_proj): Linear(in_features=1024, out_features=1024, bias=True)\n          (q_proj): Linear(in_features=1024, out_features=1024, bias=True)\n          (out_proj): Linear(in_features=1024, out_features=1024, bias=True)\n        )\n        (encoder_attn_layer_norm): LayerNorm((1024,), eps=1e-05, elementwise_affine=True)\n        (fc1): Linear(in_features=1024, out_features=4096, bias=True)\n        (fc2): Linear(in_features=4096, out_features=1024, bias=True)\n        (final_layer_norm): LayerNorm((1024,), eps=1e-05, elementwise_affine=True)\n      )\n      (7): DecoderLayer(\n        (self_attn): Attention(\n          (k_proj): Linear(in_features=1024, out_features=1024, bias=True)\n          (v_proj): Linear(in_features=1024, out_features=1024, bias=True)\n          (q_proj): Linear(in_features=1024, out_features=1024, bias=True)\n          (out_proj): Linear(in_features=1024, out_features=1024, bias=True)\n        )\n        (self_attn_layer_norm): LayerNorm((1024,), eps=1e-05, elementwise_affine=True)\n        (encoder_attn): Attention(\n          (k_proj): Linear(in_features=1024, out_features=1024, bias=True)\n          (v_proj): Linear(in_features=1024, out_features=1024, bias=True)\n          (q_proj): Linear(in_features=1024, out_features=1024, bias=True)\n          (out_proj): Linear(in_features=1024, out_features=1024, bias=True)\n        )\n        (encoder_attn_layer_norm): LayerNorm((1024,), eps=1e-05, elementwise_affine=True)\n        (fc1): Linear(in_features=1024, out_features=4096, bias=True)\n        (fc2): Linear(in_features=4096, out_features=1024, bias=True)\n        (final_layer_norm): LayerNorm((1024,), eps=1e-05, elementwise_affine=True)\n      )\n      (8): DecoderLayer(\n        (self_attn): Attention(\n          (k_proj): Linear(in_features=1024, out_features=1024, bias=True)\n          (v_proj): Linear(in_features=1024, out_features=1024, bias=True)\n          (q_proj): Linear(in_features=1024, out_features=1024, bias=True)\n          (out_proj): Linear(in_features=1024, out_features=1024, bias=True)\n        )\n        (self_attn_layer_norm): LayerNorm((1024,), eps=1e-05, elementwise_affine=True)\n        (encoder_attn): Attention(\n          (k_proj): Linear(in_features=1024, out_features=1024, bias=True)\n          (v_proj): Linear(in_features=1024, out_features=1024, bias=True)\n          (q_proj): Linear(in_features=1024, out_features=1024, bias=True)\n          (out_proj): Linear(in_features=1024, out_features=1024, bias=True)\n        )\n        (encoder_attn_layer_norm): LayerNorm((1024,), eps=1e-05, elementwise_affine=True)\n        (fc1): Linear(in_features=1024, out_features=4096, bias=True)\n        (fc2): Linear(in_features=4096, out_features=1024, bias=True)\n        (final_layer_norm): LayerNorm((1024,), eps=1e-05, elementwise_affine=True)\n      )\n      (9): DecoderLayer(\n        (self_attn): Attention(\n          (k_proj): Linear(in_features=1024, out_features=1024, bias=True)\n          (v_proj): Linear(in_features=1024, out_features=1024, bias=True)\n          (q_proj): Linear(in_features=1024, out_features=1024, bias=True)\n          (out_proj): Linear(in_features=1024, out_features=1024, bias=True)\n        )\n        (self_attn_layer_norm): LayerNorm((1024,), eps=1e-05, elementwise_affine=True)\n        (encoder_attn): Attention(\n          (k_proj): Linear(in_features=1024, out_features=1024, bias=True)\n          (v_proj): Linear(in_features=1024, out_features=1024, bias=True)\n          (q_proj): Linear(in_features=1024, out_features=1024, bias=True)\n          (out_proj): Linear(in_features=1024, out_features=1024, bias=True)\n        )\n        (encoder_attn_layer_norm): LayerNorm((1024,), eps=1e-05, elementwise_affine=True)\n        (fc1): Linear(in_features=1024, out_features=4096, bias=True)\n        (fc2): Linear(in_features=4096, out_features=1024, bias=True)\n        (final_layer_norm): LayerNorm((1024,), eps=1e-05, elementwise_affine=True)\n      )\n      (10): DecoderLayer(\n        (self_attn): Attention(\n          (k_proj): Linear(in_features=1024, out_features=1024, bias=True)\n          (v_proj): Linear(in_features=1024, out_features=1024, bias=True)\n          (q_proj): Linear(in_features=1024, out_features=1024, bias=True)\n          (out_proj): Linear(in_features=1024, out_features=1024, bias=True)\n        )\n        (self_attn_layer_norm): LayerNorm((1024,), eps=1e-05, elementwise_affine=True)\n        (encoder_attn): Attention(\n          (k_proj): Linear(in_features=1024, out_features=1024, bias=True)\n          (v_proj): Linear(in_features=1024, out_features=1024, bias=True)\n          (q_proj): Linear(in_features=1024, out_features=1024, bias=True)\n          (out_proj): Linear(in_features=1024, out_features=1024, bias=True)\n        )\n        (encoder_attn_layer_norm): LayerNorm((1024,), eps=1e-05, elementwise_affine=True)\n        (fc1): Linear(in_features=1024, out_features=4096, bias=True)\n        (fc2): Linear(in_features=4096, out_features=1024, bias=True)\n        (final_layer_norm): LayerNorm((1024,), eps=1e-05, elementwise_affine=True)\n      )\n      (11): DecoderLayer(\n        (self_attn): Attention(\n          (k_proj): Linear(in_features=1024, out_features=1024, bias=True)\n          (v_proj): Linear(in_features=1024, out_features=1024, bias=True)\n          (q_proj): Linear(in_features=1024, out_features=1024, bias=True)\n          (out_proj): Linear(in_features=1024, out_features=1024, bias=True)\n        )\n        (self_attn_layer_norm): LayerNorm((1024,), eps=1e-05, elementwise_affine=True)\n        (encoder_attn): Attention(\n          (k_proj): Linear(in_features=1024, out_features=1024, bias=True)\n          (v_proj): Linear(in_features=1024, out_features=1024, bias=True)\n          (q_proj): Linear(in_features=1024, out_features=1024, bias=True)\n          (out_proj): Linear(in_features=1024, out_features=1024, bias=True)\n        )\n        (encoder_attn_layer_norm): LayerNorm((1024,), eps=1e-05, elementwise_affine=True)\n        (fc1): Linear(in_features=1024, out_features=4096, bias=True)\n        (fc2): Linear(in_features=4096, out_features=1024, bias=True)\n        (final_layer_norm): LayerNorm((1024,), eps=1e-05, elementwise_affine=True)\n      )\n    )\n    (layernorm_embedding): LayerNorm((1024,), eps=1e-05, elementwise_affine=True)\n  )\n)", "parameters": [["shared.weight", [50265, 1024]], ["encoder.embed_positions.weight", [1026, 1024]], ["encoder.layers.0.self_attn.k_proj.weight", [1024, 1024]], ["encoder.layers.0.self_attn.k_proj.bias", [1024]], ["encoder.layers.0.self_attn.v_proj.weight", [1024, 1024]], ["encoder.layers.0.self_attn.v_proj.bias", [1024]], ["encoder.layers.0.sel
…
